best_DTG&HR_Conv1D.pt (torch, 378991 bytes, 24 tensors)

conv1.weight f4 [30, 2, 8]
00000000: 8c09 20c0 f2a3 67c0 a989 7fc0 8562 68c0
00000010: ee12 65c0 0842 2ec0 abc9 0bc0 7a51 99bf
00000020: 7b85 6d3e 8a6f 8a3e 407e cd3e fcd8 bf3e
00000030: 6e25 b13e 7f88 b23d daf8 d2ba ad4c 75be
00000040: f109 6640 2e01 0340 4c22 fc3f 061c 403f
00000050: ddf0 943e 1c5f 92bd a89f 44bf d9e7 b4bf
00000060: c4b5 29bf 609d a9be 3a6a 16bf e9c8 5cbe
00000070: afa3 debe ebc3 36bf 70f4 99be 086f 09bd
00000080: 86ba f33f 19c0 4740 6eba 2540 cecf 1140
00000090: 7d4a e93f b0e6 0140 85a2 e03f e2be 313f
000000a0: 0378 e1be 15cd 21bf 79ae dbbe c390 4bbe
000000b0: 0786 773d 0323 bcbe 9db5 b1bd 9a19 bfbe
000000c0: b463 b6bf 525c 9ebf e64b c1bf 185a a7bf
000000d0: e45c cdbf 7afc 9fbf 3515 c3bf 2f4a b3bf
000000e0: df07 193e f5b5 323f c378 243f 1690 633f
000000f0: d86f d63e c564 1b3f 261d cb3d 221c cf3e
00000100: 5b99 673f 0804 eb3e da1e 843f 5500 133f
00000110: f3f9 b13f f3d2 173f 3e1c 4b3f 0af5 093f
00000120: de91 823f 8f85 8f3f c701 0a3f 1df2 883f
00000130: 16e8 353f 97d0 263f 4a07 293f 95ce 273f
00000140: 4927 4f40 cae2 8040 5bfb 6540 73de 3440
00000150: 5ed2 3d40 3301 1c40 7743 b63f bcb6 e43f
00000160: d6e4 35be 7290 b1be 603a 9bbe b37d 78be
00000170: e8cb 99be 9851 22bf c36e c1be 449d 6d3f
00000180: fe58 9bbf 0838 86bf a9db e2bf 43fe 17c0
00000190: 301d 40c0 4147 3ac0 2e1c 11c0 edb0 1dc0
000001a0: a44e f53c fa1a 0a3e c57e 493f 7472 363f
000001b0: b246 463d 4920 313e b41c c83d 2402 f63e
000001c0: 73af 2fbf 4da5 22bf c88d 0b3e 07ef 30bf
000001d0: 733f ccbe 3939 5dbf 737b 44bf 842d 74bc
000001e0: c07f a63f 8349 e83f 10fa 9c3f 3651 e63f
000001f0: 044d a43f 4c60 993f af55 cc3f 051c 953f
00000200: d055 2b3f 7042 483f f6f9 eb3d 8bdb 783d
00000210: ec89 213f b0cc 24bb 3896 423f 56ab 2f3f
00000220: ea06 3ebf d977 d3bf 779c c9bf d5db 8ebf
00000230: dd06 dcbf 502c 86bf 5cfa b9bf b427 b1bf
00000240: eaab ae3f 6651 be3f 292b 6540 5e0a ce40
00000250: 79d9 ad40 f9a1 2440 a9f8 f53f ba99 5c3f
00000260: 6100 28be f603 41bf e979 72be a472 f0bd
00000270: 88b8 08bf 3e77 75bf 670a e43d 8dcc 0fbf
00000280: f360 3640 8c88 2b40 538d 1840 75d3 0040
00000290: 5da7 3cbe d442 6fbf 7228 bfbf ebd6 08c0
000002a0: 0212 8d3d b7cd 15bf 24b0 203e 82e6 81be
000002b0: a467 9dbe 951b 85be 044c 96bc 27d9 fcbe
000002c0: 0403 6b3f 771d c83f f6ff 893f cba2 893e
000002d0: 79d1 5f3f 90e1 643f bb01 ab3f d3e4 f63f
000002e0: e59d 623f 068a 453f 94e8 4a3f b243 293f
000002f0: 8182 073f 9be9 183e a4e8 163f faba 013f
00000300: a355 973f d8a6 8b3f bb1e 4a3f 8e49 623f
00000310: be9e 5b3f 8cfe 9a3e 6c89 9f3f 0fc7 5b3f
00000320: 2df0 2abf 8c75 91bf 8259 35be a23e cabe
00000330: f7e5 4abf 20cb 0dbf 1a61 04bf 44d7 70bf
00000340: 026d d13d 2685 8f3e ab97 7c3e 6670 353e
00000350: ecc6 d13e c555 91be 659f 003f f939 3e3e
00000360: ccee 1140 f6c0 0440 8d74 4140 2668 0640
00000370: e476 1840 1d85 3140 2bc9 ff3f 6cca 1c40
00000380: 55eb 2040 6ff6 4740 fd07 8b40 5ce8 c540
00000390: ba93 2d41 9acc cf40 0bb8 7f40 b29c 3b40
000003a0: ade6 8f3e c78c cbbe 485a 853e f17c 9dbe
000003b0: 1455 da3e f3f3 613e f629 e6bc d935 013f
000003c0: 62ff 3b3f 8f6d 773e 63e8 483f 40e1 7c3f
000003d0: f439 603f 3695 2a3f 8c6f 5b3f 7c38 1b3e
000003e0: 83f0 debe 3e39 c3be c204 a0bf 20a1 6dbf
000003f0: 3f00 d5be 31bc 8fbf 4f58 27bf 4e28 52bf
-2.5005827 -3.6193814 -3.992777 -3.6310132 -3.5792804 -2.7227802 -2.1841838 -1.197799
0.2319545 0.27038223 0.40135384 0.37470233 0.3459887 0.08717441 -0.0016095892 -0.2395503
3.5943568 2.046947 1.9697967 0.7504276 0.29090014 -0.07147047 -0.76806116 -1.4133254
-0.6629298 -0.3312788 -0.5875584 -0.21561016 -0.43484256 -0.713927 -0.30069304 -0.033553153
1.9041297 3.1210997 2.5895038 2.2783084 1.8225857 2.029705 1.7549597 0.6943189
-0.44036874 -0.63203555 -0.4290655 -0.19879441 0.060430553 -0.36745462 -0.08677218 -0.3732422
-1.4249177 -1.2371924 -1.5101287 -1.307437 -1.6043973 -1.2498925 -1.5240847 -1.4007014
0.14944409 0.69808894 0.6424677 0.8889173 0.41882205 0.6070064 0.09917669 0.4045115
0.90468377 0.45901513 1.0321915 0.5742238 1.3904403 0.5930626 0.7933997 0.53889525
1.0200765 1.1212634 0.5390896 1.0698887 0.7105726 0.6516203 0.6602675 0.65549594
3.2367728 4.027684 3.5934665 2.8260772 2.9659648 2.4375732 1.4239339 1.7868266
-0.17763075 -0.34680516 -0.30317974 -0.242667 -0.3003838 -0.6340575 -0.37779817 0.92818093
-1.2136533 -1.0485849 -1.7723285 -2.374894 -3.0017815 -2.910599 -2.267345 -2.4639237
0.029944725 0.13486853 0.7870906 0.7126839 0.048407264 0.17297472 0.097711 0.48048508
-0.6862709 -0.6353348 0.13628304 -0.69114727 -0.39892158 -0.8641544 -0.7675087 -0.01490343
1.3007736 1.8147434 1.2263813 1.7993534 1.2836003 1.1982512 1.5963649 1.1649176
0.66927814 0.78226376 0.11522286 0.060756247 0.6310108 -0.0025146417 0.76010466 0.6862081
-0.742293 -1.652095 -1.5750874 -1.1160837 -1.7189595 -1.0482273 -1.4529529 -1.3840241
1.3646214 1.4868591 3.5807593 6.4387655 5.432797 2.572386 1.921651 0.8617207
-0.16406395 -0.7539667 -0.23679318 -0.11740616 -0.5340657 -0.95885074 0.111347966 -0.56171495
2.8496673 2.6802092 2.3836257 2.0129063 -0.18423219 -0.93461347 -1.4934218 -2.1381176
0.068882 -0.5851702 0.15692192 -0.25371176 -0.30743134 -0.25997606 -0.018346794 -0.49384424
0.91801476 1.5633992 1.0781238 0.26882014 0.87429005 0.8940668 1.3359903 1.9288582
0.8852218 0.7716373 0.79261136 0.6611892 0.5293351 0.14932863 0.5894873 0.5067593
1.1823009 1.0910292 0.7895314 0.88393486 0.85789096 0.3027233 1.2463813 0.85850614
-0.6677273 -1.1363997 -0.17709926 -0.3950091 -0.7925715 -0.5538807 -0.51710665 -0.9407847
0.1022587 0.28031272 0.24667232 0.17718658 0.40972078 -0.2838575 0.50243217 0.18576802
2.2802 2.0742774 3.0227387 2.1001067 2.3822565 2.7737496 1.9983267 2.4498549
2.5143635 3.124416 4.344725 6.184614 10.848566 6.493726 3.995608 2.931439
0.2810568 -0.39755842 0.26045442 -0.30759385 0.42643034 0.22065715 -0.02809618 0.5047279
0.7343656 0.24162887 0.78479594 0.98781204 0.8758843 0.6663393 0.8571708 0.15158266
-0.4354287 -0.3812961 -1.2501452 -0.9282398 -0.4160175 -1.1229306 -0.65369123 -0.8209275

conv1.bias f4 [30]
00000000: 3d45 bd3e ee21 22be 076c b8be 986a f23d
00000010: eaf7 e0bd dcb3 ba3e 9be5 493f abaf 0f3e
00000020: cdbf 2f3f db65 0d3e f9fb 0ebe 24ff bf3e
00000030: 2a25 193e 5d58 35be 0573 8a3e 0274 7abe
00000040: ac6e 8abe e133 febe 36b7 34be bcc4 f6bd
00000050: 7b28 e5be a6d6 96be 9bd4 133e de2c 04be
00000060: 1ddc e43d 9571 fbbb 4b7f f03e 59a4 50be
00000070: 4856 b73e 3689 663e
0.36966887 -0.15833256 -0.36019918 0.118367374 -0.10984786 0.36465347 0.78865975 0.14031856
0.6865204 0.13808386 -0.13963307 0.37499344 0.14955583 -0.17709489 0.27040878 -0.24458316
-0.2703756 -0.49648955 -0.17648014 -0.12049243 -0.44757447 -0.2946064 0.14436571 -0.1290774
0.11174796 -0.007673452 0.46972117 -0.20375194 0.35808015 0.2251328

batchnorm1.weight f4 [30]
00000000: b683 1a40 2673 5b3f 0dfd 083f fe40 db3f
00000010: 276d a63e 3efe 9e3f 86ca 1040 99c6 063f
00000020: f3fe a73f 3519 6440 5796 433f a37b 293f
00000030: 4d14 943f 8932 653f 664a cb3f 5586 1b3f
00000040: 4105 2040 6a09 433f 5560 893f a9ff 9b3f
00000050: 79c3 973f 00b6 fe3f c146 983f 92d3 7b3f
00000060: 5602 553f f81c ec3f 7b22 a23f 3235 4c3f
00000070: 19ad b93f f674 203f
2.414289 0.8572258 0.53511125 1.7129209 0.32505152 1.2421339 2.262361 0.52646786
1.3124679 3.5640385 0.76401275 0.6620428 1.1568695 0.89530236 1.588208 0.6075185
2.5003207 0.7618624 1.0732523 1.2187396 1.1856529 1.9899292 1.1896592 0.98369706
0.8320669 1.844634 1.2666773 0.7976867 1.450595 0.6267847

batchnorm1.bias f4 [30]
00000000: 955e 9e3f cda6 35c0 efa8 e4bc b0e0 8bbe
00000010: fb6a eebd cd27 2abf 06ad 363d 0250 033e
00000020: 81bb abbe a25f c340 dbd8 e1bf a60e 0abe
00000030: afa7 653d 9b05 c9bf 8f7c b3bd 5855 923e
00000040: e7cc 0f3e 0be4 63bc 4d0c a7bf 82e5 a1bd
00000050: edc4 0bbf 565e 67bf ea0c 313e 1463 09c0
00000060: 9219 7cbf 8543 f7be e52a 24be c236 0cbd
00000070: 8452 833e 7869 bebe
1.2372614 -2.8383057 -0.027912585 -0.2731986 -0.11641499 -0.6646698 0.0445986 0.1282349
-0.33541492 6.105424 -1.7644304 -0.1348215 0.05606812 -1.5704836 -0.08763992 0.28580737
0.14043008 -0.01390935 -1.3050629 -0.07905103 -0.5459736 -0.9037832 0.17290083 -2.1466722
-0.9847652 -0.482937 -0.16031988 -0.03423191 0.25648892 -0.3718984

batchnorm1.running_mean f4 [30]
00000000: 4cc9 d23e b455 4bbe 6b75 cebe b200 2e3e
00000010: 20ce 5dbd 9624 a63e 03ce 543f 982a 833e
00000020: 2cff 133f 1865 a13d bef0 26be c126 d33e
00000030: d127 b93d ac9c f83b fbf0 6e3e 1b8e 9ebe
00000040: e358 70be 40dc 13bf 7e1c ae3d 0ea2 68bd
00000050: 5a26 0fbf d1e5 e2be 835c c23d 2e8c ad3e
00000060: 5412 a83d 2d7b 143d eba2 e23e cdbd 7dbe
00000070: 9bbc a33e 5f5c 893e
0.41169202 -0.19856912 -0.40323958 0.16992453 -0.054151654 0.32449788 0.8312685 0.25618434
0.57811236 0.0788061 -0.16302773 0.41240504 0.090407975 0.007587036 0.23334114 -0.30967793
-0.23471408 -0.5775795 0.08501528 -0.056795172 -0.55917895 -0.4431596 0.094903015 0.3389601
0.08206621 0.036250282 0.44264922 -0.24779435 0.31979832 0.26828286

batchnorm1.running_var f4 [30]
00000000: b3e8 f943 b00d d341 8b81 5843 1f51 b042
00000010: 1b42 fd42 57d9 e143 7984 7143 74cb b642
00000020: c79b a142 576b eb43 1cba 9741 b0f6 1643
00000030: ad39 0842 b378 c743 9afa cd44 04db d141
00000040: f2ef bd44 907e 2342 fdfa 2244 42ea 1642
00000050: e85f b042 ded0 3c43 11c1 9f42 1e5d 1245
00000060: 87f6 8743 fe8b 1e44 b76e 9342 9654 6743
00000070: ecdf 1043 f263 0743
499.81796 26.381683 216.50603 88.15844 126.62911 451.69797 241.51747 91.39737
80.80425 470.8386 18.965874 150.96362 34.056324 398.94296 1647.8313 26.231941
1519.4983 40.873596 651.9217 37.728767 88.18732 188.81589 79.87708 2341.8198
271.926 634.1874 73.71624 231.33041 144.8747 135.39041

conv2.weight f4 [30, 30, 5]
00000000: 05ea efbf ccd4 3a3f 990e d73f 4350 8a3f
00000010: 370d acbf af0e c9bd cb28 253f c64b 073f
00000020: 22ef 033e 58af 983e 060d 923f c641 3d3d
00000030: cc79 0dbd 9bf1 163e fdaa 793e 634a c6bf
00000040: f5e7 023f 8487 0f40 05a6 cb3f eb1d 06c0
00000050: d32d 543f 38f4 5e3e ac95 cd3d 3d2b 493f
00000060: 8f11 583f 164f 5fbe d383 01bf a9e6 96be
00000070: 09ca 133d b407 83bc 2922 d3bf 055c 993f
00000080: 58f4 5940 2587 e33f 7de5 3fc0 3a64 8d3e
00000090: 44e9 d03e ad90 dc3e 7dcf 223f 32bd 9d3e
000000a0: 9690 6ebe 629f 30bf f37f 86bf 43c2 56bf
000000b0: 3b53 25be ce68 0c3f 38a3 61bf 9366 a7bf
000000c0: c0d2 febe c3cd 5a3f 0c60 e8be 422b 0d3e
000000d0: 535d 4d3e 6d44 c73d ae08 bbbc 159d 373f
000000e0: 9fce bf3d 708b 89be d41c 483c 2bd6 173f
000000f0: 3c4f bdbe fb9d 60be 2ff9 9f3e 216f 9c3b
00000100: ad88 91be fa53 463f 8153 fe3e c786 453e
00000110: f1c6 efbd 976f 303e ab08 803f ce7f 833d
00000120: c516 7fbe 6cda 7bbe 08d0 f43d e5f3 7abd
00000130: ed7f e7be 9351 29bf a030 b9be afd0 a23e
00000140: 3057 5dbf 55a2 fa3e 8c78 ca3f cfa8 953f
00000150: ace7 3ebf 77dc 3ebf 4c0d 8cbf 27bf a8bf
00000160: 24b9 8abf 0f9f 7cbe 9217 8fbe bb6c 47bd
00000170: b473 5dbe 935a a9be 98cf d1be 77af 9bbf
00000180: 7525 a13d 7cef 503f df5b 223f 6ffe 38bf
00000190: e9d5 8b3f 9147 a73e b11d 4fbe 79b1 abbd
000001a0: 6c19 8d3e 939c 253f e034 bd3e 108e 453e
000001b0: 7ab5 7b3e 9156 dc3e 5fe4 093f c4f1 053e
000001c0: f530 ce3d b4bc 07be 03f8 903e 4aee a23e
000001d0: 4b83 953e 9eb9 153e eb71 643e 8785 613c
000001e0: 5ac4 0a3e 4aed 4d3e 0c31 ad3e 0abd 0e3f
000001f0: b894 023f f14c 873f dea3 793f 479c c33f
00000200: 5cb9 b83f ae02 63bf 09d2 aabe 0f44 da3b
00000210: 8486 603c 598b ee3d ce80 39be 3642 873f
00000220: 6ff9 973d defa a2bd 87dd 9c3d fc52 9a3e
00000230: 8bd7 0bbf 21c6 64be bc26 8cbb 8b64 453d
00000240: 3dfa 46bf d3f9 263f e9a0 083f 11d8 453e
00000250: 9297 febe 7557 9ebe 23b7 053f 5c4c a7be
00000260: 1fea aebe 3789 81be 5f98 223f 6154 0b3f
00000270: 9abd ad3e 0771 793d 3ee2 50be d636 0cbf
00000280: 086f c9bd 60cf 2ebe 8e32 a1be a72c cfbd
00000290: 58fc c8bd 4773 73bd fedc 8d3e 25cd 96be
000002a0: aa4d a0be 5352 493e fed7 00bf 8f46 4abe
000002b0: 87f3 49bf f794 4fbf 18b3 a0bf dce7 febe
000002c0: f303 c13d 7c9f 123f f64d 143f 809c 2c3f
000002d0: fab8 193e 15b3 b2ba 4968 083e d631 adbd
000002e0: 1a01 9cbc f09d a5bf f884 c0bf 2fe4 bebf
000002f0: 57dd eabf 6c4c e4bf a550 3a3f 3ee3 333f
00000300: 4085 1b3f 0a19 613e ba5b 613d 0ee2 fdbc
00000310: c0e8 853d ba35 cd3e 10e9 253d 4b40 13be
00000320: 335e ab3f 17a5 613f 32d1 da3e 6407 2b3d
00000330: 3f7f 81be 9e6d b5bf 9953 02bf 9991 42be
00000340: d747 f0be f10e b7be 27b3 9bbf b2c2 adbe
00000350: e4c8 60be 7afc 123d 56d3 0bbe d64c 3fc1
00000360: f59d 3bc1 9d70 3ec1 4b09 41c1 8204 45c1
00000370: ea25 a2be ffd3 9039 8a19 153e 2258 883e
00000380: ce3b 5a3e bf28 023d d5c4 253e e818 933e
00000390: 0875 d63c ea63 183e a90a e33e 4813 8e3d
000003a0: 3fdd 3a3e 679e a6be 0c3b 22be 2d2a 3abe
000003b0: 1f9a 7fbe 8bfb 68be c2b9 89be 4685 d5be
000003c0: bc07 b8c0 8c1e b6c0 6cfa b2c0 00bb b1c0
000003d0: bdd2 b1c0 6d34 16bf 96b6 e3be ade6 14be
000003e0: ed5f 1e3e 4750 5a3f cd6e b73e 89c4 51be
000003f0: c868 a6be c6e0 f4be c600 bdbe 8dd3 2f3e
-1.8743292 0.7298095 1.680133 1.0805744 -1.3441533 -0.09817254 0.6451537 0.52849996
0.1288419 0.29821277 1.1410224 0.046205305 -0.034539983 0.14740603 0.24381633 -1.5491451
0.5113519 2.2426462 1.591004 -2.095576 0.8288242 0.2177285 0.10038313 0.785816
0.8440179 -0.21807513 -0.5059177 -0.29472855 0.036081348 -0.015994884 -1.64948 1.1981207
3.4055386 1.7775618 -2.9983819 0.2761553 0.40802968 0.4307913 0.6359785 0.30808407
-0.23297343 -0.689932 -1.0507797 -0.8389017 -0.16145031 0.5484742 -0.8813968 -1.3078178
-0.49770164 0.8547022 -0.45385778 0.13786033 0.20055132 0.09729848 -0.022831287 0.71724063
0.09365582 -0.26864195 0.012213904 0.5931117 -0.36974514 -0.21935265 0.312448 0.00477399
-0.28424588 0.7747189 0.49673083 0.19289695 -0.11707867 0.17230068 1.0002645 0.06420861
-0.2491103 -0.2459504 0.11953741 -0.061267752 -0.45214787 -0.661401 -0.3616991 0.31799838
-0.8646116 0.48951975 1.5818038 1.1692141 -0.74572253 -0.7455515 -1.0941558 -1.3183335
-1.083775 -0.24670051 -0.2794767 -0.048687678 -0.21626168 -0.33076915 -0.40978694 -1.2162923
0.078684725 0.81615424 0.63421434 -0.72263235 1.0924655 0.32671788 -0.2022617 -0.083834596
0.27558458 0.6469204 0.36954403 0.19292474 0.24580947 0.43034795 0.5386409 0.13080508
0.100679316 -0.13255578 0.28314218 0.31822425 0.2920173 0.14621589 0.22309081 0.013764746
0.13551465 0.2011005 0.33826482 0.557572 0.51008177 1.0570356 0.97515666 1.5282067
1.4431567 -0.88675964 -0.3336337 0.0066609452 0.013703946 0.11647672 -0.18115541 1.0567081
0.074206226 -0.07958005 0.076594405 0.30141437 -0.5462577 -0.22341205 -0.0042770784 0.04819159
-0.77725583 0.6522495 0.5337053 0.19320704 -0.49725014 -0.309261 0.5223257 -0.32675445
-0.34162995 -0.253 0.6351375 0.54425627 0.33933717 0.060898807 -0.20398805 -0.54771173
-0.09835631 -0.17071295 -0.31483883 -0.10115939 -0.09813756 -0.05943611 0.27707666 -0.29453388
-0.31309253 0.1966031 -0.5032958 -0.19753478 -0.7888722 -0.8108668 -1.2554655 -0.4978627
0.094245814 0.57274604 0.5793146 0.674263 0.15011969 -0.0013633693 0.13321032 -0.08456771
-0.019043494 -1.2938824 -1.5040579 -1.4913386 -1.8348798 -1.7835822 0.72779304 0.7026862
0.607502 0.21982208 0.055019118 -0.03099158 0.06538534 0.40080053 0.04050547 -0.14379995
1.3388122 0.8814253 0.42737728 0.041755095 -0.25292394 -1.4174078 -0.5090881 -0.19000854
-0.4692981 -0.35753587 -1.2164048 -0.33937603 -0.21951634 0.03588531 -0.13654837 -11.956259
-11.726064 -11.9024935 -12.064769 -12.313601 -0.3166955 0.0002762377 0.14560524 0.2662974
0.21311876 0.03177714 0.16188367 0.2872994 0.026178852 0.14881864 0.4434407 0.06937271
0.18248461 -0.32542726 -0.15842837 -0.18180151 -0.24961136 -0.22752206 -0.26899534 -0.41703242
-5.750944 -5.691229 -5.593069 -5.554077 -5.556975 -0.58673745 -0.4447524 -0.14541121
0.1546628 0.85278744 0.35826722 -0.20485128 -0.32501817 -0.4782774 -0.36914653 0.17170544

conv2.bias f4 [30]
00000000: 770f a6bc bc23 ba3e 57c6 383e def3 1b3e
00000010: aeb2 7abe 9f4e 083e 113e e13c e66c f7bd
00000020: 2429 7abf 466c 723d fbda 9a3c 71bf a4bd
00000030: cc92 8abd 23ce 5e3e 5f23 a73c 6e47 d7bc
00000040: 71a5 4cbd f5c4 5cbd 61c5 aebe 4adc 92bd
00000050: fffb aebc 3af9 28be d438 07be 4ea6 2fbe
00000060: bfc4 ab3e c1c8 07be 9cf0 71be 4ae9 91be
00000070: 5047 573e f562 c2bc
-0.020271046 0.36355388 0.1804441 0.15229747 -0.24482223 0.13311242 0.027495416 -0.120813176
-0.97719026 0.05918529 0.018903246 -0.08044327 -0.067662805 0.21758322 0.020402608 -0.026279178
-0.049962465 -0.05389877 -0.34134963 -0.07170923 -0.021360395 -0.16501322 -0.13205272 -0.17153284
0.33548543 -0.13260175 -0.23626941 -0.28498298 0.21023297 -0.023728827

batchnorm2.weight f4 [30]
00000000: 0827 a33f 67e9 823f 5c6b 743f 18c2 853f
00000010: d43f 423f c329 573f 4362 4c3f 8ef4 233f
00000020: 90f5 e33f f809 8d3f d1dd 3f3f 6f49 383f
00000030: 7a38 b33f a33e ea3f c785 703f 568b 273f
00000040: 78eb 0e40 64d3 ad3f 6833 b93f ec4e 7f3f
00000050: 95e8 ff3e 5835 2a3f a790 8e3f d4f8 f23e
00000060: e0f7 953f 73fe 943f 7df9 983f 3b82 7f3f
00000070: c0ba 7e3f 08bb 1040
1.2746286 1.0227479 0.9547632 1.0449858 0.75878644 0.840481 0.79837435 0.64045036
1.7809315 1.1018667 0.7494784 0.7198705 1.400161 1.8300365 0.9395413 0.65446985
2.2331219 1.3580136 1.4468813 0.997298 0.49982134 0.66487646 1.1137894 0.47455466
1.171627 1.1640152 1.1951138 0.9980809 0.9950371 2.2614155

batchnorm2.bias f4 [30]
00000000: 3168 c4be b2c0 5b3e b298 c8bf fba0 0f3f
00000010: e871 c73e b5d9 acbe d644 e63e de9f 0b3e
00000020: cd90 4340 ba98 17bf b57d 30bf 58c9 12bf
00000030: 6734 bfbd 73a8 abbe 99f7 46bf 0102 8bbe
00000040: 6449 ebbe ebfa bcbf 29ca 0940 2fa3 36bc
00000050: 2d8a 183e c8c0 a43f 6df7 093f 65e3 72be
00000060: f517 e63e 0e41 c3bd 3cd2 133f 6221 273f
00000070: e802 1dbf a4e4 2c40
-0.38360742 0.21460226 -1.5671599 0.5610501 0.3895409 -0.33759847 0.44974393 0.13635203
3.055713 -0.5921742 -0.68941814 -0.57338476 -0.09336167 -0.33526954 -0.77721554 -0.27149966
-0.4595443 -1.4764074 2.1529639 -0.011147304 0.1489646 1.2871332 0.53893167 -0.23719557
0.44940153 -0.095338926 0.5774267 0.65285313 -0.6133256 2.701455

batchnorm2.running_mean f4 [30]
00000000: 5fb8 60c0 13e8 92c0 f957 f5bf c3cd d9bd
00000010: f1e5 a0bf 3479 e4bf c6a9 8dc0 401f 90c0
00000020: 9f7a 0cc1 7d53 4342 d630 f6c0 6987 3f41
00000030: ba39 09c0 25bd 1541 b6d8 89c1 7746 6d40
00000040: 26c1 3cc0 fa8b 0041 dde8 99c1 4b45 1cbe
00000050: aeb5 dec1 1466 4ec1 01ce eac1 d354 663f
00000060: 63bf 6441 03f4 7fc0 a029 c940 0e62 6ec0
00000070: 696a 5440 cf6f 0140
-3.511253 -4.5908294 -1.9167472 -0.10634949 -1.2570173 -1.7849488 -4.4269743 -4.5038147
-8.779937 48.83153 -7.6934614 11.970559 -2.1441483 9.358678 -17.230816 3.7074258
-2.9492888 8.034174 -19.238703 -0.15260808 -27.83871 -12.899921 -29.350588 0.8997318
14.296725 -3.9992683 6.286331 -3.7247348 3.3189948 2.0224493

batchnorm2.running_var f4 [30]
00000000: 1db7 3442 d6dc 2343 6a6d 4c41 ebc8 6942
00000010: fc75 8642 e305 b542 318b a142 a406 b643
00000020: e1a3 0d42 63db 1c45 ee4b 0f43 e627 e543
00000030: 3e3f e543 956c fe42 b34a 9043 4525 d543
00000040: de6a 4843 5bb0 8543 51d8 a142 0c19 8242
00000050: 9f76 5543 e925 8c42 20e5 d343 3483 4d42
00000060: ba6a cc42 e3fa e442 8a08 ee42 3552 9f41
00000070: f4c2 d742 b5ca 9041
45.17882 163.86264 12.776712 58.44621 67.23044 90.5115 80.77186 364.05188
35.410038 2509.7117 143.2966 458.3117 458.49408 127.212074 288.5836 426.29117
200.41745 267.37778 80.92249 65.04892 213.46336 70.07404 423.79004 51.378128
102.20845 114.49001 119.01668 19.91514 107.88077 18.098978

conv3.weight f4 [30, 30, 5]
00000000: 991a 8ebf 3a7f 3dc0 02a4 4bc0 fc3b 863f
00000010: e32a 05bf 9e60 0abf 1ac7 123f 8833 aa3f
00000020: ce65 09bf 2ce4 e3be 6b1f a33d 8332 113e
00000030: 29ba c93d 7943 aabd 5c6b d93c c5ed d1bd
00000040: 321b 3cbc 21e9 c03e de64 123e 7fcc 933e
00000050: 5c12 153d b2e7 aebf 22b8 dd3e e6f3 c43f
00000060: 98a5 7bbe 73fe aebe c58c 783c f9f3 7fbe
00000070: c045 a83f fabd 8bbf b89c 9cbe 8111 803f
00000080: bd01 603f 82e5 b5bf ecf0 c03e 6ea1 32bf
00000090: 7ae8 d8bd da1f 3a3f fe23 f43e 056b b2be
000000a0: 6e76 1ebf 4a95 87bf 0cd4 88bd 7457 8b3f
000000b0: c26b 953e 6ed9 a5be 0a40 91bd 79be d23e
000000c0: fcf9 8e3f 0ca3 97bc 1736 44bf 8bb5 ab3e
000000d0: c3e8 0e3f 78a6 1cbe b481 06bf 5067 f2be
000000e0: 0da1 343f e59d 0c3e 2e4b 16bf f60b d3bd
000000f0: 7d3b e93e edba 8bbe 2a11 aebf bca3 893f
00000100: 5838 eebd 7446 233e cf23 acbf 1952 9a3f
00000110: 8cf1 783e 4024 26bf f7cf cabd ae65 3b3e
00000120: 53c9 fc3d 66d0 303f 187e 02be cdb0 95be
00000130: 1616 dfbe 11ed 0bbe 32cf ca3e 3a5e 15bf
00000140: dab0 c4bc 4699 8d3f d8f5 d63e 7835 a3bf
00000150: 73f3 323e 6fe9 663e b948 b8c0 4c5d 92c0
00000160: f31d 2a3f 448b 04bf b3cc b5be 09fd 473f
00000170: 050a 1fbf 6a02 62be edf4 203f 69bb 113e
00000180: e44c 84bf 22e9 8f3e 670a c93f 63e8 b13e
00000190: ce9a b23e 1c6d a83e d048 9dbf 77af af3d
000001a0: 6fff 273f 836f a7be 9862 653f efd4 33be
000001b0: 70dc 29bf 8d1a 683f 77ce 4fbe 0e03 4e3e
000001c0: 9866 49bf 1358 173f e3f6 c03e efdb 803e
000001d0: 3d7e a4bf 48c6 3d3f df3c 1f3e 80bd 873e
000001e0: 5a6f bb3c 706d b4bf eff5 453e 1af3 d43f
000001f0: 9503 7cbf b9dc 29be 8d05 04bf f36a 6d3f
00000200: d6af 153f 9733 6dbd 176a efbf dd5d 8b3f
00000210: 4e7f 0b40 ce01 78bf 41c6 afbe c21c 493e
00000220: b317 c2bf 541f 653f f569 b23e 64cb 113d
00000230: 2e09 82be ae0b 6a3f 1e69 223f 8c9d 6abe
00000240: 9929 cfbd d84e 9fbf 7b26 b1bc 0cd4 d53e
00000250: 672a 59be 42d7 0b3f 1c0a 3dbf f11b 9d3e
00000260: 202f 513f 4793 56bf 5682 55bd 6e2d 35bf
00000270: 4753 ffbd 1c2b e1be 90d1 893e 2884 eebd
00000280: 9348 173f 6b0e f63d 8d82 cb3e 62a3 63bd
00000290: e9a7 c4be 341a cdbe ab04 873e a2ce 333f
000002a0: 3f0d fcbe 1827 363f da06 013d da97 073f
000002b0: 366a cf3e ad31 75bf e6e2 183f 2adf a4bf
000002c0: 845a d9be de06 483f 821a 34bf a6a2 263f
000002d0: bd6a 123f 6a11 d1bd 6775 50bf eca1 1ebf
000002e0: 4c79 513f e7b6 ac3c bc54 15bf 617a d0bf
000002f0: 6de0 aebf a093 403f 079f 21c0 c0f9 a13f
00000300: 94c5 1b3f ef99 98bf 2a0e e53e 6ada 24bf
00000310: d706 013f 4c6b 6f3f fb9f bdbf e793 f93e
00000320: 59e5 193e aa64 ef3e c63f f8be c3d0 fdbb
00000330: df5e 673f 1abb cdbd 674b b33d 8d0f cbbf
00000340: 158e 52bf faf1 cebe 8d3e e9bf bb4e a13f
00000350: 322e 003e da6c 06bf 29fa 443d 1a5e 8ebf
00000360: 15c6 b53f 2a70 5a3d de18 89be 4a4b db3e
00000370: d3a9 383e 39f2 633f d9e2 aa3e c05e 38be
00000380: e310 333e 2c50 f7bf 215a 613f 7e13 70be
00000390: 74a2 56be 3508 363f 2cf7 4e3f 1707 a5bf
000003a0: 5ef2 213f dc9c 453f c00b 23bf d03b 32c0
000003b0: 735e 233f 9a77 003f f861 79be f2d7 adbe
000003c0: 269f 4d3f 778f 33bf a215 bb3f 9ca2 413f
000003d0: f79a 97be 05e2 3d3d b50d 83be 4f7e b6bd
000003e0: f6b8 2ebe ae4c 52bf 2e08 f0bc a080 8ebf
000003f0: 819c 343e 103c 1440 5a2d 8b3e ab1d 963f
-1.1101867 -2.9608903 -3.1818852 1.0487056 -0.52018565 -0.54053676 0.57335055 1.3296976
-0.53670967 -0.4451002 0.07964977 0.14179425 0.0984996 -0.08313651 0.02654045 -0.10250429
-0.011481093 0.37677863 0.1429629 0.28866956 0.036394462 -1.3664458 0.43304545 1.5386932
-0.24574888 -0.34178504 0.015170281 -0.24995412 1.3146286 -1.0917351 -0.30588317 1.0005342
0.8750265 -1.4210665 0.3768381 -0.6977757 -0.105912164 0.7270485 0.4768371 -0.34847274
-0.6189946 -1.0592434 -0.0668107 1.0886064 0.29183775 -0.32392448 -0.070922926 0.41160944
1.1170039 -0.018510364 -0.76645035 0.33536944 0.55823916 -0.15297878 -0.5254166 -0.47344446
0.70558244 0.13732107 -0.58708465 -0.10305016 0.45553198 -0.2729105 -1.3598988 1.0753093
-0.116318405 0.15944844 -1.3448428 1.2056304 0.24310893 -0.64899063 -0.099029474 0.18300506
0.12343087 0.6906799 -0.12743413 -0.2923645 -0.43571538 -0.13664652 0.39611202 -0.58346903
-0.02401011 1.10624 0.4198444 -1.2750692 0.17475681 0.22549985 -5.7588773 -4.573889
0.6645195 -0.51775 -0.35507736 0.78120476 -0.62124664 -0.22071233 0.6287373 0.14231648
-1.0335965 0.28107554 1.57063 0.3474761 0.34883732 0.32895744 -1.2287846 0.08578389
0.65624136 -0.32702264 0.8960357 -0.17561696 -0.66351986 0.90665513 -0.20293604 0.20118353
-0.7867217 0.59118766 0.3768836 0.25167796 -1.2851025 0.7413068 0.15550564 0.26511765
0.022880245 -1.4095898 0.19332097 1.6636689 -0.98442966 -0.16588105 -0.5157097 0.92741317
0.5847143 -0.057910528 -1.8704251 1.088802 2.179645 -0.96877754 -0.34330943 0.19639876
-1.5163482 0.8950093 0.34846464 0.03559436 -0.2539763 0.9142407 0.63441646 -0.22911662
-0.10115356 -1.2445936 -0.021624794 0.4176334 -0.21207581 0.5462533 -0.7384355 0.3068538
0.8171253 -0.8381848 -0.05212625 -0.70772445 -0.12467056 -0.43978202 0.26917696 -0.116463006
0.59095114 0.12014469 0.3974804 -0.055575736 -0.38409355 -0.40059054 0.2637075 0.7023717
-0.49228856 0.711534 0.031500675 0.5296608 0.4051072 -0.95778924 0.5972122 -1.2880604
-0.4245187 0.7813548 -0.7035295 0.6509193 0.5719412 -0.102083996 -0.8142914 -0.61965823
0.8182571 0.021083308 -0.5833242 -1.6287347 -1.3662239 0.7522526 -2.5253313 1.2654343
0.60848355 -1.1921977 0.4473737 -0.64395773 0.5040106 0.935231 -1.4814447 0.48745653
0.15028895 0.46756488 -0.48486155 -0.0077458336 0.90379137 -0.100454524 0.08754616 -1.5864121
-0.8224805 -0.40418988 -1.8222214 1.2602152 0.12517622 -0.52509844 0.048090134 -1.1122468
1.4201075 0.053329624 -0.26776785 0.42830878 0.18033533 0.8904148 0.33376196 -0.18004894
0.1748691 -1.9321342 0.8802815 -0.23444936 -0.20960408 0.7110627 0.80845904 -1.2892789
0.6326045 0.77192473 -0.63689804 -2.7849007 0.63815993 0.501825 -0.24353778 -0.33953816
0.80320966 -0.70140785 1.4615977 0.7563875 -0.29610416 0.046358127 -0.25596395 -0.0891081
-0.17062744 -0.82148254 -0.029300775 -1.1133003 0.17637827 2.316166 0.27183038 1.1727804

conv3.bias f4 [30]
00000000: 146f 803e cbec 9a3e 435b 49be 2fad b03d
00000010: a6b7 803e 18e6 bfbd f16e 593b 1980 4a3d
00000020: ea02 02be 7d43 223e bd0f 813e 1fd3 f0be
00000030: 3fff d03d 1fc4 8c3d bc80 b63c 4008 17be
00000040: af35 903e 5c40 f8bd 6f71 883d c18e c03d
00000050: e667 3c3e 2091 1c3e dbec 7d3d 169c aa3c
00000060: c500 99be b8e3 3b3e 96d6 ca3c cbdb 493d
00000070: b552 9bbe 4b35 ccbd
0.25084746 0.30258784 -0.1966372 0.08626782 0.25140113 -0.09370059 0.0033177698 0.04943857
-0.12696424 0.15846057 0.2520732 -0.47036073 0.10204934 0.06873345 0.022278182 -0.14749241
0.28165957 -0.121216506 0.06662261 0.09402228 0.18399009 0.15289736 0.06199346 0.02082638
-0.298834 0.18348587 0.024760526 0.049281877 -0.30336538 -0.09971102

batchnorm3.weight f4 [30]
00000000: 1f96 a43e 95e3 6d3e 7834 fe3e 46e9 2f3e
00000010: 5340 4b3e 399e 393e afd1 5d3e 753f 5b3e
00000020: 6248 2a3e ff2f 803e 9ebd 6d3e dbc8 823e
00000030: 7c1e 303e c05c 523e 5862 663e 7b0b 843e
00000040: 77e2 363e 0f00 113e c72d 413e 9975 813e
00000050: dca6 513e 6120 783e 08a5 193e d146 4e3e
00000060: 47a4 483e 061f a43e f8de 643e 0818 1d3e
00000070: ef32 523e 9d42 383e
0.32145783 0.23231347 0.49649405 0.1717883 0.19848756 0.18126763 0.21662019 0.21410926
0.16629174 0.25036618 0.23216864 0.25543866 0.17199129 0.20543194 0.22498453 0.2579001
0.17859827 0.14160179 0.18865119 0.25285032 0.20473808 0.24231102 0.1500436 0.20144202
0.19593917 0.3205492 0.22350681 0.15341198 0.20527242 0.17994161

batchnorm3.bias f4 [30]
00000000: 291d e5bd 1a00 dcbd 9e91 003e 8685 4abd
00000010: 212b 0bbd 4fc9 813d ef83 b0bd 5c41 71bc
00000020: adec 15bd 4e96 a7bb 62e7 75bd 29c7 1dbe
00000030: e339 1fbe d0f4 8cbd 0bef acbd 9f8e 38be
00000040: 1d2e afbc 884b 10bc f37f 59bd 8415 cdbc
00000050: 69fd 6d3d 5ee5 d6bd a5e9 0fbd ba6e a7bc
00000060: ae96 76bd 4541 e03d 3acc 77bd 8139 94bd
00000070: 23b4 a8bd 7b21 b33c
-0.111872025 -0.10742207 0.12555549 -0.049443744 -0.033976678 0.06337225 -0.08618914 -0.014725056
-0.036602665 -0.0051143533 -0.060035117 -0.15408005 -0.15549426 -0.06882632 -0.08444031 -0.18023156
-0.021384293 -0.008807071 -0.053100538 -0.025034674 0.058103 -0.10492967 -0.03513493 -0.02043854
-0.060202293 0.10949949 -0.0604975 -0.072375305 -0.08237483 0.02186655

batchnorm3.running_mean f4 [30]
00000000: 6e39 40c0 4e65 3fc1 bdcb 57c0 d3ea 0ec2
00000010: 696f 2ec2 db7b f140 55db bdbf 4aae c941
00000020: aff9 c0c1 818c 4ec0 7d61 f9c0 ea7b f240
00000030: 9e56 5441 27cb 3dc1 bcc2 9ac1 1e8d 0041
00000040: 77fb 98c1 15e1 36c1 e666 d9c1 af90 a0c1
00000050: 3337 0ec2 6739 cabf 2e2d 6fc1 e77e aec1
00000060: 6df7 bc3f 2e9f 08c1 0b2d 6bc1 c036 3e41
00000070: 6919 0d41 d3a1 9fc1
-3.0035052 -11.962233 -3.3718102 -35.72932 -43.6088 7.546369 -1.483256 25.210102
-24.121916 -3.2273257 -7.7931504 7.577626 13.271147 -11.862098 -19.345085 8.034452
-19.122786 -11.429952 -27.175243 -20.070646 -35.553905 -1.5798768 -14.94853 -21.811964
1.4763008 -8.538862 -14.698497 11.888367 8.818704 -19.954016

batchnorm3.running_var f4 [30]
00000000: e0b3 f842 0351 1542 4853 cb43 a043 1543
00000010: a5aa 5a43 b5dd 8843 64c5 0143 8c6b 8443
00000020: 2712 ad42 e288 b842 aa3b 8d42 1f2b 2842
00000030: 9860 8442 e9af d542 fa46 ca42 3b1a 8e42
00000040: dd26 e142 1bff e042 9863 a842 2512 cf42
00000050: a299 5343 f2b9 fd42 2f97 b942 0a52 1143
00000060: 08f4 5142 ef3f 3743 c9a5 a543 df00 1f43
00000070: ec1b a642 b45e 4343
124.35132 37.329113 406.65063 149.26416 218.66658 273.7321 129.77106 264.8402
86.53545 92.26735 70.61653 42.04211 66.18866 106.843575 101.138626 71.05123
112.575905 112.49825 84.19452 103.53544 211.60013 126.863174 92.79528 145.32047
52.48831 183.24974 331.2952 159.0034 83.054535 195.36993

dense1.weight f4 [200, 390]
00000000: ae38 953c a034 adbc 4a4d 0abe 29a3 0c3d
00000010: cad8 403b b12a c6bd 1358 01bd f414 36bc
00000020: 03c7 f83c 9f54 15be 4935 203e 24a4 c53c
00000030: 4953 29bc 8a77 09bd 4f71 103a b82a 3abe
00000040: d194 cdbd 01cc 313d e0fe 983d b813 903c
00000050: f2b9 68bd fe54 8c3b 23c4 b8bd 92c3 f93c
00000060: 809d 6c3d ae37 95bb 4744 32bc 693d a4bd
00000070: c462 fdbc 856f 92bd 4cb6 f9ba 5616 bfbd
00000080: 8da5 9f3d 4772 b1bd c49c 1b3d 75f6 97bd
00000090: b52f 57bc c824 76bc bd67 b73a 4f82 e0bc
000000a0: ba15 e4bd 2788 753c 93dd b6bd 509a d23c
000000b0: 6e6f 75bd 5d2b 923c a580 b23c 4f78 b73c
000000c0: a97b 6f3c 70ed 143d c008 61bc c1c1 a13c
000000d0: d369 59bd fd59 903c ba11 533b 6785 863d
000000e0: bc5d 11bd 79e0 633d a04d bfbd f844 2bbd
000000f0: db3c 2b3d 2ba8 c1bd dfff 7c3d 82f3 513c
00000100: ac76 3fbd 7423 fabd cfb5 9c3d 149b 1c3e
00000110: dfdd 593c 8619 2a3b 0671 20bd 283a 35bd
00000120: fc3b 79bc 91f1 213d e77b bcbd b09e e8bb
00000130: 1b20 b23c 4a30 4abd f893 a13a 1cef 6bbd
00000140: f767 15bd 9dfe cfbd 00e7 3b3d e710 693d
00000150: 9a39 85bd 4aac 80bc 2672 cf3c a8ed 413d
00000160: e21f 4c3d 0653 dbbc 5d74 83bc 9ad8 ed3d
00000170: 5bfb 1bbc 5d14 293d d697 973c 6127 813d
00000180: d5d2 78bd 5e83 e53c 329c 593c e653 f4bc
00000190: 1d2c a2bb b264 053d abaa b8bd 96de b8bd
000001a0: 7084 f0bd 68fb 803d ef94 06be 6d28 1b3c
000001b0: ac8d 233c d114 813d a54c b0bc 4476 d1bc
000001c0: a7e1 41bd d082 bebc 12be debd a91a 33bd
000001d0: 8821 783d 39bd 16bd c9aa 443d f39f 31bd
000001e0: ebf7 fe3b 4e19 74be cf72 dbbc fad1 dcbc
000001f0: 71f9 75be c4ac e6bd 7793 97bc 0695 89bd
00000200: dd47 babd 39a6 3cbe 97ba 823c eac7 43bc
00000210: 1865 a9bd 7020 df3d c890 87bd f505 953d
00000220: 27e9 54bd cfce d3bb 4c99 46bb bbda a5bd
00000230: 45ad 803d 8ec6 c33c 8fca 7ebd baf8 d1bd
00000240: b785 d73b efb1 c03c 5d20 303d 544e 8ebd
00000250: fcd0 f43c b544 90bc 180c 97bd 40e0 5cbd
00000260: cb0c a83d 7f5d 8bbd 1813 95bd b45b 013d
00000270: 4602 063e f877 fabc 2976 dabc 6ffe b03d
00000280: 1c14 aebc d684 ba3b a45c 59bd d812 b53d
00000290: 608a abbd 6947 813d ffdc 1e3e 8109 83bc
000002a0: f202 cf3d 190b 983d 1b52 1ebd 2d11 5f3c
000002b0: a9ba 47bd b223 923d ee07 663a 577e 06bc
000002c0: 325e 00be 664b 7ebd bd66 dcbc 3d6b ebbb
000002d0: af33 f63b edd2 b33c 7f9e 393d c233 3bbd
000002e0: 9f5a a6bd c6be acbd 98c4 c1bd 9081 913d
000002f0: bfc6 a83d 8149 86bd ab0b d6bd e4fd 2cbd
00000300: 8d54 54be c470 09bd f8a5 013e 28dd b3bd
00000310: 3a6c 7cbd 7579 f83c 8e33 20be 481c b1bd
00000320: 567d ecbd 45a5 963d 818a c8bc 15f7 3d3d
00000330: fed0 e83c dd51 4fbd b5b0 cf3c e312 0bbd
00000340: eccb 833d 8f97 d63d fee3 643d ba3e 16be
00000350: cff7 c1bb 8f99 a4bd 655c 3cbc be40 57bb
00000360: da26 873d 3dc1 023c a78a 153d 3f94 59bd
00000370: de61 733d dad5 84bd 4aa7 913b 8bba 693e
00000380: d938 efbd 5e6c 99bc 1302 693c 812e f8bd
00000390: 5aa2 34bc 6a65 803c 789e 65bc 9199 163e
000003a0: 182e 37bd d8b3 e2bd e1c7 a53c 41eb d13c
000003b0: d1bf 6cbd 77b2 33bd 8bc4 db3d 8c7a c2bc
000003c0: d33d a8bd 3ebd ccbb 69f7 8c3d 060f e6bd
000003d0: 43e7 0e3c 5731 20bd 6263 97bd fb1a 8bbd
000003e0: 5599 1cbd 5823 383d f818 6ebc 2c5d 9cbb
000003f0: 7fab c7bc 4e82 173d 92a9 92bb 9606 01be
0.018215504 -0.021143258 -0.13506046 0.03433529 0.0029426091 -0.096761115 -0.031578135 -0.011113394
0.030368334 -0.14583062 0.15645327 0.02412612 -0.010334798 -0.033561267 0.00055100484 -0.18180358
-0.1003815 0.043407444 0.074704885 0.017587528 -0.056817956 0.004282593 -0.09021785 0.030488763
0.05776739 -0.0045537567 -0.010880536 -0.080195256 -0.030930884 -0.07150177 -0.0019051521 -0.09330432
0.07795248 -0.08664375 0.0379913 -0.07420055 -0.013133933 -0.015023418 0.0013992708 -0.027405886
-0.111369565 0.0149860745 -0.08928981 0.025708348 -0.05992072 0.017842943 0.021789858 0.022396235
0.014616885 0.03635925 -0.013734996 0.01974571 -0.053079437 0.017621035 0.003220661 0.06568413
-0.035489783 0.055633996 -0.09340978 -0.04181382 0.041806083 -0.094559036 0.061767455 0.012814404
-0.046744034 -0.122137934 0.07651865 0.15293533 0.013297527 0.0025955155 -0.039170288 -0.044244915
-0.015212055 0.039537016 -0.0920332 -0.007098995 0.021743825 -0.04936246 0.0012327423 -0.05760108
-0.0364761 -0.101559855 0.045874596 0.056900885 -0.06505127 -0.015707154 0.025322985 0.047345787
0.049835093 -0.026772987 -0.016046697 0.11613579 -0.009520377 0.041279186 0.018505018 0.06306339
-0.06074794 0.028016742 0.013281869 -0.029825162 -0.0049491064 0.032566734 -0.09016927 -0.0902683
-0.117440104 0.06297952 -0.13142751 0.0094700875 0.009982508 0.063027985 -0.021520922 -0.025569089
-0.04733434 -0.023255736 -0.10876097 -0.043726597 0.060578853 -0.03680155 0.048014436 -0.04336543
0.007781019 -0.23837778 -0.026788143 -0.026955593 -0.24020936 -0.11263421 -0.018502934 -0.06717877
-0.09095738 -0.18422784 0.015958114 -0.011949519 -0.08271235 0.10894859 -0.06619412 0.07276527
-0.051980164 -0.0064638625 -0.0030303774 -0.0809836 0.062830485 0.02389839 -0.062204894 -0.10252519
0.0065772193 0.023522345 0.042999614 -0.06948534 0.029884808 -0.017610887 -0.073753536 -0.0539248
0.08205565 -0.06804942 -0.072790325 0.031581596 0.13086805 -0.030574784 -0.026667671 0.08642279
-0.021249823 0.005692105 -0.053066865 0.08841485 -0.08376002 0.063124485 0.15513991 -0.015995743
0.10107984 0.07423992 -0.03865252 0.013614935 -0.048761997 0.071357146 0.00087749853 -0.008208833
-0.12535933 -0.062083624 -0.026904458 -0.0071844147 0.0075134854 0.021951163 0.04531717 -0.045703657
-0.08122753 -0.08434825 -0.094613254 0.0710479 0.08241033 -0.065569885 -0.10451444 -0.042234316
-0.20735379 -0.033554807 0.12660968 -0.087824166 -0.06162665 0.030331353 -0.15644667 -0.08647972
-0.115473434 0.073557414 -0.024480106 0.046378214 0.028419968 -0.05061518 0.025352815 -0.03395356
0.064353794 0.10478126 0.055881493 -0.14672366 -0.0059194337 -0.080371015 -0.011496638 -0.0032844986
0.06599207 0.007980642 0.036509182 -0.053119894 0.059419505 -0.064861014 0.0044449912 0.22825067
-0.11680765 -0.018728431 0.014221686 -0.12118245 -0.011025036 0.015673358 -0.014014833 0.14707018
-0.044721693 -0.11069459 0.020236911 0.025624873 -0.057800118 -0.04387137 0.10730847 -0.023740076
-0.08214917 -0.0062481454 0.06883127 -0.11233334 0.008722129 -0.039109554 -0.07392003 -0.067922555
-0.038232166 0.04495558 -0.01453232 -0.004771849 -0.024373768 0.036989503 -0.0044757808 -0.12600169

dense1.bias f4 [200]
00000000: ba67 25bd c493 e93f 1b6e d6bc 819a cebe
00000010: d61d d7bc 0890 9d3e ee6d 9e3c 0448 23bf
00000020: cf46 a5be 7294 2f3d e287 493e 066d 453f
00000030: f99f 91bc 10bd 8d3f 44c1 fa3f 32f2 9b3f
00000040: eeae 2e3f 97ae 243f d9ea 9dbd c9c3 e1bd
00000050: dca4 96bb b865 5bbf ea3c a13b 54f3 b8bd
00000060: 16f6 903f f1ef cebe fc15 fb3b 1e9e 9f3f
00000070: 776f 573c 6a57 383f be9f 6dbd 5b00 d8bd
00000080: 60d9 86bd c61d 8c3c c3d4 7c3e f0c3 353f
00000090: 612d 5bbf dbab 693f 4ce1 51bd f465 1abc
000000a0: c052 9cbb b966 7cbd 1e78 993f e66e 88bc
000000b0: 4ec8 ab3e e1dc 63bd 5d7e 4f3e dc2b 193e
000000c0: aaf1 e8bc ba14 3b3e 4346 2abf 6748 2cbf
000000d0: b87e 3ebd 6b8c 683f 4919 353f 30c7 f3be
000000e0: 46c6 8ebd d3a8 dcbe 9549 c13f 3f5e b93b
000000f0: 5b6a 6cbd 8cf3 393f 8cd3 bf3e 342f 15bd
00000100: 20ac 293d 0caf 2b3f 3f72 dabe 618e 70bd
00000110: 4a33 28bf 3249 1fbf 9022 fc3c d3e2 04bd
00000120: b29c 073f 3c39 a5bd 23b9 97bd f46e 6d3f
00000130: 432a b53f a8de 083f ae2a 92bd 7616 dfbb
00000140: 0366 ecbd 8958 fb3e 8b12 c6bd 0076 963f
00000150: 2253 1e3e 6cf3 76bd f63a 113f 3def 19bf
00000160: ad19 3abb 4d04 d3bc c18b 033d f5b9 ad3e
00000170: ddb4 a93e 1684 59bc 8f35 56bf c712 293f
00000180: e151 4e3e 2970 d1bd 54de 90bd 9d62 86bf
00000190: 87fa 11bd 5850 c4be 22ce 7ebd f5f0 40bd
000001a0: 6511 5ebd f981 ac3e 7037 853e c651 ddbe
000001b0: 5894 b8bc b5b0 21bf 7aa3 cc39 8952 593f
000001c0: bf08 683e 5bed 95bd cbb5 8c3d 97a0 203f
000001d0: d222 babe 9431 9ebd 33da 33be cfba 0f3f
000001e0: 1ef4 16be be54 1d3c d370 a23f e5ec 58bd
000001f0: 30d9 273f 5c8c 39bd 62ab 5b3f 185b ea3e
00000200: ea53 393f e59d 8ebf 7024 bfbd c56c 1a3d
00000210: 9606 c03e 79e5 95bc af38 e73e f425 e8bc
00000220: 37eb 153f 8fb3 fbbe f91e 36ba 6fec d8be
00000230: 253c dc3e 160a 053e 702c 903e 6269 07bd
00000240: cc12 953f 9eb4 cfbd a091 8b3c 9bce 043f
00000250: 632e 943e b6f3 8f3f e896 caba 696c bb3e
00000260: fbca b83d 6912 203e 55de e23f 01c1 633f
00000270: 7390 a3be 3f04 93be f340 0cbf dab9 2a3e
00000280: 76ce d43e c2ad 82bb 1112 1bbe 933b 9cbe
00000290: 7b9d 92bc 52cd 34b7 6ae6 a0bd e4e0 f03f
000002a0: d235 fbbc 6e9e 3abd 80fd 6a3f 00b2 2ebe
000002b0: c258 cfbe 3922 873f 437c 9f3f 1cae 73bd
000002c0: 3ea6 c43a 65e2 81bd cd19 37bd 82a8 9a3e
000002d0: e4b3 b1bf c077 fa3e d4cc 84ba e9b2 29bf
000002e0: 0c20 9dbc c7ff ccbc 5979 9bbd 91e4 e03f
000002f0: fea5 5bbd a39b 313f 960b 1b3f 6af6 c5bd
00000300: a24f 9abd 7d20 e8bc 4e6e 53bb fca6 d43f
00000310: f9e3 a4bd 4a4a b33f 69cc 203f 552a 63bd
-0.040382124 1.824822 -0.02617555 -0.40352252 -0.026259344 0.3077395 0.019339528 -0.6378176
-0.32280585 0.042866178 0.19680741 0.7711948 -0.017776476 1.1073322 1.959023 1.2183287
0.6823567 0.643289 -0.07710809 -0.11023671 -0.0045972895 -0.85702085 0.0049205916 -0.09030786
1.13251 -0.40417436 0.007662533 1.2470129 0.013149134 0.72008383 -0.05801367 -0.10546943
-0.0658443 0.01710404 0.24690537 0.710021 -0.8561612 0.91277856 -0.05124025 -0.009423722
-0.0047706068 -0.0616214 1.1989782 -0.016654443 0.33551258 -0.05563057 0.20263048 0.14958137
-0.028435547 0.18269625 -0.6651346 -0.6729798 -0.046507567 0.9083926 0.7074171 -0.47612906
-0.069714114 -0.43097553 1.510058 0.005656987 -0.057718616 0.7263725 0.37466085 -0.03642197
0.041423917 0.67063975 -0.42665288 -0.058729533 -0.6570326 -0.6222106 0.0307782 -0.03244288
0.52973473 -0.08067557 -0.07408359 0.92747426 1.4153522 0.53464746 -0.07137047 -0.0068080975
-0.11542895 0.49090984 -0.096715055 1.1754761 0.154614 -0.06029074 0.5673059 -0.60130674
-0.0028396652 -0.025758887 0.0321157 0.33930936 0.331458 -0.013276121 -0.83675474 0.66044277
0.20148422 -0.10226471 -0.07073656 -1.0498844 -0.035639312 -0.38342547 -0.062208302 -0.047104795
-0.054215807 0.3369291 0.26018858 -0.4322645 -0.022531673 -0.6316026 0.00039031712 0.84891564
0.22659586 -0.073206626 0.06870612 0.6274504 -0.3635469 -0.077243 -0.17563705 0.5614442
-0.14741561 0.009602724 1.2690681 -0.052960295 0.65565777 -0.045299873 0.85808384 0.45772624
0.7239367 -1.1141936 -0.09333122 0.037701387 0.37505025 -0.018297898 0.45160434 -0.02833841
0.58562034 -0.4916043 -0.00069473643 -0.42367885 0.43014637 0.12992129 0.28158903 -0.033059485
1.1646361 -0.10141872 0.017037213 0.51877755 0.2894164 1.124625 -0.001545635 0.36606148
0.090230905 0.15632023 1.77241 0.88966376 -0.31946144 -0.28714177 -0.54786605 0.16672459
0.41563767 -0.0039879987 -0.1514361 -0.30514202 -0.017897358 -1.0776641e-05 -0.07856448 1.8818631
-0.030665312 -0.045561247 0.9179306 -0.17060089 -0.40497404 1.0557319 1.2459797 -0.059492216
0.0015003157 -0.063420095 -0.04470234 0.30206686 -1.3883023 0.48919487 -0.0010131844 -0.6628862
-0.01918032 -0.025024308 -0.075915046 1.7569753 -0.0536251 0.6937811 0.60564554 -0.096661404
-0.0753472 -0.028335804 -0.0032261792 1.661346 -0.08051295 1.4007046 0.62811905 -0.055460293

dense2.weight f4 [20, 200]
00000000: 754b 5b3b 6102 ba39 cb95 9bbd b739 3a3e
00000010: 4320 043d bd53 7a3d 0636 ad3d 6cc4 fbbd
00000020: 62e1 83bd d9ae 25bd 1c50 1d3e 2aa6 ed3d
00000030: ca8b 02be a856 413d 4dac 623d 3f9a e2bd
00000040: 0efb 143e e507 eebc 1636 25be c605 253e
00000050: f841 893b 5294 95bd 2245 87bd e5d1 af3c
00000060: 78cc 273e c4b0 25bd 3a2e adbc 83be 00be
00000070: 865f f5be 55b6 e63d 968d 513d dfcf 873e
00000080: 9965 2fbd 428c 05bf f3f2 8f3e 7245 3bbe
00000090: d5fc d93a 30df f5bd 45eb c23d 7f3c f83d
000000a0: 5ee9 a1bd 02b1 163e b265 263d fb4c 86bd
000000b0: 8997 ccbd 07e6 af3c 26cb b23e e9b2 113c
000000c0: 5715 eb3d 9142 243d 185f 5c3e 8a91 393e
000000d0: 727e 873d 62df 703e 7e4c 90bd cade 223d
000000e0: a7ad bf3d fdc5 d53e 042c fa3d 5f72 08be
000000f0: 66c3 1abf c3c0 b7bd 4819 cdbd bd56 173e
00000100: 2994 613e b7b5 a83d 5337 93bd 8db0 613d
00000110: ddcc 3b3e f909 ee3d 1862 bebb 1524 32be
00000120: 52b1 a43d 6deb 0c3e 4295 5b3d bb3f abba
00000130: c0d4 1ebd 995c 6e3e 38ae e3bd a761 183c
00000140: f75b 6abe 7571 ce3e 5139 5d3b a087 903e
00000150: fb1d 193e 4d55 093e 616e 7abe 3703 8fbb
00000160: 6b47 fb3d 2553 f63d 24c4 1e3e 994b fc3d
00000170: 79f6 dcbd 7fcc 813d 5281 a7bd 9d28 253d
00000180: 265b 9f3d 3d4c 383c 32aa 07be 4377 023f
00000190: 1f03 e63d e412 733f 35a4 55bd 3337 823e
000001a0: 5b23 85b9 2842 f1bd 6d20 18bb 9215 d9bd
000001b0: 9455 3e3c b700 50be d1ca 35be 0e87 df3c
000001c0: b000 a0be f65c 1ebe a7f5 78bd 7c15 2c3e
000001d0: ff2b 65bc f686 c93c 2d93 22bf 289f 173e
000001e0: 12e1 d53e 2fcd b7ba 35e3 74bd f7f5 6b3d
000001f0: 09eb 953e 9d1c 47bd e22d 823e 2f06 e0bd
00000200: e4ba 533e 16c9 a43e c0dc c33d d35e e23d
00000210: 043f d63d f9ce 34be 961c dabe 45b9 803d
00000220: cce6 88bd a8ee 8e3d d2d8 173d 061c 05be
00000230: 8b8b 2b3d 0e09 78be a74b 36bd 49f1 aa3d
00000240: 4eb2 793d a144 883d 5725 9bbd e534 35be
00000250: 9a52 41bf 21aa 163d 4137 8c3d 1a7d 3e3e
00000260: 3d3c d0bd 5f6a 363d de47 f83e 844f f5bd
00000270: ebd1 16bd 480e 05bd 6149 273e 2868 6c3e
00000280: 3382 c5be 4428 b7bd 9a31 d43c a02a e63c
00000290: d960 903d d92e 32bd 46d2 8ebd a7aa 72bd
000002a0: 423d 97bd 2cfd 0c3d dfae 203e 35b4 653d
000002b0: f78c 413e 63fb 03bd 9990 b03c 9db0 743c
000002c0: c5f3 40bd de4a 713c 291a 54be 3c4e 9cbe
000002d0: 5a9b 6dbe e6d5 aa3c 396a c53d 6e03 2abe
000002e0: 6dbe 45be 6e94 00be 46d7 a83d cc11 b63d
000002f0: 3b53 42bd 1392 c1bd 14ca 9d3e 8c89 813d
00000300: affb 49bd 44bc eebd 5ab9 52be 21ea af3d
00000310: b0f0 debc 7b0c 883e 57fb cc3d 7ea7 0fbe
00000320: b93d f33c 75a5 6bbd 24b1 6abe de23 1cbe
00000330: bdd6 27be 9953 b4bc d44a fb3c d3a6 993d
00000340: cb7e 6ebd 54f0 88bd 576a ea3c 2197 6bbd
00000350: bbe8 8f3d 1497 25be 6226 9bbb 5b27 263d
00000360: 1148 2abe 2f71 e8bd 46e9 19be a137 ae3d
00000370: c402 1bbe 8b12 ffbc ccf3 ba3d f593 ee3d
00000380: 89db e2bc 9965 23be 90de f13b 9276 8c3b
00000390: 1739 eb3d ad03 e1bd 1fb0 e5bd fa6e e8bd
000003a0: 9acc 85be 2263 2e3e 7b1f a03d 3e63 f4bd
000003b0: 56b0 59be b598 03be 88cb c5bc 113f 103d
000003c0: 1d45 35bc 3730 303d c53e 7d3c 791c 86be
000003d0: c987 8ebd 6490 7fbb aacc c4bd 7a5a c9bc
000003e0: 59d1 b63d a8a9 ecbd 1b1c 88bd 5426 0b3e
000003f0: 27d0 1f3e 0081 06be 7358 2fbe 41ef 593d
0.0033461724 0.00035478457 -0.0759693 0.18186079 0.03225733 0.061115015 0.0845757 -0.12293324
-0.06439473 -0.04044995 0.1536259 0.11603959 -0.12748638 0.047201782 0.0553401 -0.11064576
0.14548895 -0.029056499 -0.16133913 0.16115484 0.0041887723 -0.073036805 -0.06604983 0.02146239
0.16386592 -0.04045178 -0.021140207 -0.12572674 -0.4792444 0.11265246 0.051160417 0.2652578
-0.0428215 -0.5216714 0.28115043 -0.1828821 0.0016631136 -0.1200546 0.0951753 0.12120914
-0.079058394 0.1471596 0.040624328 -0.065576516 -0.099898405 0.02147199 0.34920615 0.008892753
0.114786796 0.040102545 0.2152065 0.18121925 0.066159144 0.23522714 -0.0704584 0.03976325
0.093592934 0.41752616 0.122154266 -0.13324879 -0.60454404 -0.08972313 -0.10014588 0.14779182
0.22029175 0.08237784 -0.07188287 0.055100013 0.18339868 0.11622996 -0.0058100335 -0.17396577
0.08041634 0.13761683 0.05360914 -0.0013065258 -0.038777113 0.2327751 -0.11117214 0.009300626
-0.22886644 0.40320936 0.0033756087 0.28228474 0.14952843 0.13411446 -0.24456169 -0.004364397
0.12269481 0.12027577 0.15504509 0.123191066 -0.107891984 0.06337833 -0.08178963 0.040321935
0.07781057 0.011248645 -0.13248518 0.5096323 0.11231064 0.949507 -0.052158553 0.2543274
-0.0002539408 -0.117801964 -0.0023212687 -0.10599817 0.011617083 -0.20312773 -0.1775315 0.027286079
-0.31250525 -0.1546515 -0.060781147 0.1680507 -0.01398754 0.024600487 -0.6350582 0.14806807
0.41773278 -0.0014022941 -0.059786994 0.057607617 0.2928088 -0.048611272 0.2542563 -0.109386794
0.20676762 0.32184666 0.09563589 0.110532425 0.10461238 -0.17657079 -0.42599934 0.06285337
-0.06684646 0.06979114 0.03707201 -0.12998971 0.041881125 -0.24222204 -0.04450574 0.08346803
0.06096106 0.06653715 -0.075754814 -0.17695959 -0.75516665 0.03678334 0.06846476 0.1860241
-0.101677395 0.044535037 0.4849233 -0.11978057 -0.036821287 -0.032484323 0.16336586 0.23086607
-0.38575897 -0.08943227 0.025902558 0.028096497 0.07049722 -0.04350171 -0.069737 -0.059244778
-0.07384731 0.03442113 0.15691708 0.056080062 0.1890143 -0.032222163 0.021553325 0.014934686
-0.047107477 0.014727322 -0.20713104 -0.30528438 -0.23203793 0.020853948 0.09639401 -0.16602871
-0.19310923 -0.12556621 0.08244185 0.08890113 -0.047442656 -0.094516896 0.30818236 0.06325063
-0.04931229 -0.116570026 -0.20578519 0.085895784 -0.027214378 0.26572022 0.10008877 -0.14028737
0.029692518 -0.05753084 -0.22919136 -0.15248057 -0.1639051 -0.022012519 0.03067533 0.07502522
-0.058226388 -0.06686464 0.02861516 -0.057517175 0.07026812 -0.16170913 -0.0047348 0.040564876
-0.16629054 -0.11349713 -0.15030393 0.08506704 -0.15137774 -0.031136772 0.09128532 0.11649314
-0.027692573 -0.15956725 0.007381268 0.0042865956 0.114854984 -0.10987029 -0.11215233 -0.11349292
-0.2613266 0.17030004 0.078185044 -0.119329914 -0.21258673 -0.12851222 -0.024144903 0.035216395
-0.011063841 0.04301473 0.01545686 -0.26193598 -0.06959493 -0.0038995976 -0.09609349 -0.024579275
0.08926649 -0.11555797 -0.06645986 0.1358884 0.15606748 -0.13135147 -0.17123584 0.053206686

dense2.bias f4 [20]
00000000: 39fd 173f ae6c 21bd b437 bebe bdd4 50bf
00000010: 2072 2a3f 3c14 f13f 52fa fcbc fe3f 3a3f
00000020: 52eb b73f 939e 9e3f 7567 8fbe aa9c d9be
00000030: d8a1 00bd 3800 e93e 4581 f0bd d350 21be
00000040: 867a 65bd 7da7 9b3e 2017 a03f 50b9 07be
0.5937076 -0.039410286 -0.37151873 -0.8157461 0.6658039 1.88343 -0.03088108 0.72753894
1.4368689 1.2392143 -0.2800862 -0.42502338 -0.031404346 0.4550798 -0.11743406 -0.15753488
-0.05602505 0.3040122 1.2507057 -0.13254285
